pretrained/compas_mlp_base_latent.pth (torch, 72095 bytes, 4 tensors)

fc1.weight f4 [128, 8]
0	0x3cc9aa74	0.024617411
1	0xbe8c0bd1	-0.27352765
2	0x3e367517	0.17818104
3	0x3e8ba372	0.27273136
4	0xbdb420f9	-0.087953515
5	0x3d6ef93b	0.058343153
6	0x3e33fed0	0.17577672
7	0x3d0a1d79	0.033719514
8	0xbe7eeeac	-0.24895734
9	0x3e65ec47	0.22453414
10	0xbe1b9fdb	-0.15197699
11	0xbe502e30	-0.20330119
12	0xbeeaedfd	-0.45884696
13	0x3dbdde00	0.09270859
14	0xbe3dcd02	-0.18535236
15	0x3e1e5170	0.15460753
16	0xbc611b4f	-0.013739421
17	0x3e1fe65c	0.15615219
18	0x3ec81114	0.3907553
19	0x3d8a33e9	0.06748182
20	0x3e50d34e	0.20393106
21	0x3ea22c72	0.31674534
22	0xbea8d524	-0.32975113
23	0xbdd3c8a4	-0.103410035
24	0xbdfb0d5b	-0.12258407
25	0x3eb21be0	0.34786892
26	0x3dd69c53	0.10479035
27	0x3e29fca9	0.16600288
28	0x3eabd576	0.33561295
29	0xbec58df4	-0.38584864
30	0xbe847d02	-0.25876623
31	0x3dfbc30f	0.12293064
32	0xbdbbb72b	-0.09165796
33	0x3ebbe855	0.36700693
34	0xbe88abe0	-0.2669363
35	0x3e88b8c4	0.26703465
36	0xbe8c80e2	-0.2744208
37	0xbe85f43c	-0.261629
38	0x3ea2564b	0.3170646
39	0x3e7e260d	0.24819203
40	0xbeb60dad	-0.3555731
41	0xbe4bb9c3	-0.19895081
42	0x3e13fe36	0.14452443
43	0x3e305f03	0.17223744
44	0xbdceba3d	-0.10094116
45	0xbede6741	-0.4343815
46	0xbec3465f	-0.38139626
47	0xbe75e57c	-0.24013323
48	0xbe81d170	-0.253551
49	0x3e1baa29	0.1520163
50	0xbe9059b6	-0.28193444
51	0x3c1f46b7	0.00972145
52	0x3ead7427	0.3387768
53	0xbc7b3609	-0.015332707
54	0x3e519564	0.20467144
55	0x3bab8f34	0.005235577
56	0xbe3afe4d	-0.1826107
57	0x3e2991be	0.16559502
58	0x3e5c6dbd	0.21526237
59	0x3d8659cc	0.06560096
60	0x3ea2408f	0.3168988
61	0x3c3ef373	0.0116547225
62	0xbebac1bd	-0.36475936
63	0xbe035e9f	-0.12829064
64	0x3e806012	0.25073296
65	0x3d231f44	0.03982474
66	0x3d925f2c	0.07147059
67	0x3d88f7db	0.066879
68	0xbe8cc458	-0.27493548
69	0x3e1e2a63	0.15445857
70	0x3cb993c6	0.022653472
71	0x3e7ad68f	0.2449591
72	0x3dedff6a	0.11620982
73	0xbe8451a1	-0.25843528
74	0x3d5b14c8	0.053486615
75	0x3eaee28c	0.34157217
76	0xbe1c9204	-0.15290076
77	0x3e2566d2	0.16152504
78	0x3e5a4c3d	0.21318145
79	0xbda546d4	-0.0807015
80	0x3dddd6d1	0.108319886
81	0x3e538f70	0.20660186
82	0xba32e17a	-0.000682376
83	0x3e2e0984	0.16995817
84	0x3e1277fb	0.14303581
85	0xbeafaf15	-0.34313264
86	0xbc53dbb4	-0.012930799
87	0xbe8bfeb8	-0.27342772
88	0xbe4d3dd8	-0.20043123
89	0xbe4ee099	-0.20202865
90	0x3e0d56f9	0.13802709
91	0xbdb66839	-0.08906598
92	0x3e3dc634	0.1853264
93	0x3d984af6	0.07436173
94	0x3e9a3846	0.30121058
95	0xbd635c3d	-0.055507887
96	0x3e89969b	0.26872715
97	0xbdd27bf3	-0.10277548
98	0xbeae830f	-0.34084365
99	0x3eb0b097	0.34509727
100	0x3e9707df	0.29498193
101	0xbd6f9c9f	-0.058498975
102	0xbdfbd23a	-0.12295957
103	0x3c9c76cd	0.019099617
104	0xbdcfbcd1	-0.10143436
105	0xbed18b32	-0.4092651
106	0x3e1c4fde	0.15264842
107	0x3d5cf747	0.05394676
108	0xbd5b9a6c	-0.053614065
109	0x3e04fa56	0.1298612
110	0xbcc88fbc	-0.0244826
111	0xbe9cfd51	-0.30662015
112	0x3ea148e6	0.3150093
113	0xbe54a68a	-0.20766655
114	0xbe6e4afd	-0.23270793
115	0x3ea969e6	0.33088607
116	0xbe307c8e	-0.17235014
117	0xbe0fa327	-0.14027081
118	0xbec2dd47	-0.38059446
119	0xbe58d7fa	-0.21176139
120	0xbd289a06	-0.041162513
121	0x3d5aa690	0.053381503
122	0x3e672f12	0.2257655
123	0xbe8d5e73	-0.27611122
124	0xbe2c3780	-0.16818047
125	0xbc89ab7a	-0.0168054
126	0xbe637c84	-0.22215468
127	0xbda3ecaf	-0.08004128
128	0xbeba2d5c	-0.3636273
129	0x3eb263a0	0.34841633
130	0xbd380112	-0.044922896
131	0xbb45bfdc	-0.0030174172
132	0x3e02e896	0.12784037
133	0x3e3d3d33	0.18480377
134	0x3e961b97	0.29317924
135	0xbe952c5c	-0.29135406
136	0xbe58f000	-0.21185303
137	0x3cbd4c0e	0.023107555
138	0x3e0691d8	0.13141572
139	0x3e86fa77	0.26362965
140	0x3e088db9	0.13335313
141	0x3d4bedcf	0.04978734
142	0xbc586d84	-0.013209704
143	0xbe04ffed	-0.12988253
144	0xbe825061	-0.2545195
145	0xbeab78aa	-0.33490497
146	0x3c1e397d	0.009657261
147	0x3de78996	0.11305539
148	0xbd9d15f2	-0.07670201
149	0x3e937261	0.28798202
150	0xbd05e177	-0.032685723
151	0xbe9b7538	-0.30362868
152	0xbcf936a2	-0.030421559
153	0x3ec936ca	0.39299613
154	0xbe1e4a67	-0.1545807
155	0x3ddd05e9	0.10792143
156	0x3d175526	0.03694644
157	0x3da164c6	0.07880549
158	0xbd9f8844	-0.077896625
159	0xbd865527	-0.0655921
160	0x3ec0dd96	0.37669057
161	0x3cafd5ea	0.021464307
162	0x3d07ef89	0.033187423
163	0x3e95d272	0.2926212
164	0xbe176735	-0.14785464
165	0xbe52223a	-0.20520869
166	0xbebddb6d	-0.3708147
167	0x3cd1d956	0.02561633
168	0xbe61a8b5	-0.22037013
169	0x3d288ebb	0.041151743
170	0xbe6a2398	-0.2286514
171	0x3e198547	0.14992248
172	0x3e961a23	0.29316816
173	0xbe94b23e	-0.29042238
174	0xbe2d0c8a	-0.16899315
175	0x3e5d2ef7	0.21599947
176	0xbd9b164f	-0.075726144
177	0xbde03cc9	-0.10949094
178	0x3de3e962	0.111284986
179	0xbe2b50fe	-0.16730115
180	0x3e65f09f	0.22455071
181	0x3c61f9c1	0.013792456
182	0xbeb99839	-0.3624895
183	0xbe16ae36	-0.14714894
184	0xbdc6806f	-0.096924655
185	0x3e84c322	0.25930125
186	0x3eb232a3	0.34804258
187	0x3e57e8b5	0.21084864
188	0xbef8d10b	-0.48596987
189	0x3dba41ae	0.09094559
190	0x3d714847	0.05890682
191	0x3ea54d0e	0.3228535
192	0x3ea26d93	0.31724223
193	0xbe899bd4	-0.268767
194	0xbee7a9b9	-0.45246676
195	0xbed9665d	-0.4246091
196	0xbe35b096	-0.17743143
197	0x3d532066	0.05154457
198	0x3e3ed836	0.18637165
199	0xbe702f78	-0.23455608
200	0x3dc66634	0.096874624
201	0x3e890f17	0.26769325
202	0xbdfba84e	-0.12287961
203	0xbed23ea2	-0.4106341
204	0xbe9d7e65	-0.30760494
205	0x3ea16051	0.31518796
206	0x3e0b3d16	0.13597521
207	0xbeb5f85c	-0.35541046
208	0x3eb80426	0.35940665
209	0xbe0b77c0	-0.136199
210	0xbe714b4d	-0.23563881
211	0xbdcc73c3	-0.09983017
212	0x3ea7696f	0.32697627
213	0xbe75bb37	-0.23997198
214	0x3eab2a01	0.33430484
215	0x3d75235d	0.05984818
216	0xbda9b917	-0.08287256
217	0x3e9bda06	0.30439776
218	0xbcf76634	-0.030200101
219	0x3e1f6bd6	0.1556848
220	0xbe849819	-0.2589729
221	0x3c937c31	0.018003555
222	0x3e1c0f09	0.1524011
223	0x3e808ef6	0.2510907
224	0xbe0289a1	-0.12747814
225	0xbe1d0b56	-0.15336356
226	0xbe2a6353	-0.16639452
227	0xbe70abe9	-0.23503079
228	0xbc334340	-0.010941327
229	0xbdadcbb8	-0.08486122
230	0x3e4bf3f4	0.1991728
231	0xbe2db956	-0.16965231
232	0xbe6d7c7f	-0.23192023
233	0xbe1d2f98	-0.15350187
234	0xbe9c0416	-0.30471867
235	0xbe72624e	-0.23670313
236	0xbea7fb2d	-0.3280882
237	0x3e846aff	0.25862882
238	0x3ecbf727	0.39837
239	0xbe6f2e5a	-0.23357525
240	0x3e4afaec	0.19822282
241	0xbe4fb824	-0.20285088
242	0xbe4413ef	-0.19148229
243	0xbd2ad624	-0.041708127
244	0xbe04d68d	-0.1297247
245	0xbe9579b8	-0.29194427
246	0x3e62142e	0.2207801
247	0x3d487942	0.048943765
248	0xbdfd2ab4	-0.123616606
249	0xbe7bcaec	-0.24589127
250	0x3c9ee880	0.019397974
251	0xbea62b9b	-0.32455143
252	0xbdf54080	-0.11975193
253	0x3e1c4275	0.15259726
254	0x3c6cb440	0.014447272
255	0xbd2d9386	-0.042377017

fc1.bias f4 [128]
0	0x3e88b73e	0.26702303
1	0xbdda0205	-0.106449164
2	0xbe8ade15	-0.2712256
3	0xbdbd91d3	-0.092563294
4	0xbe80c78e	-0.25152248
5	0x3d26a0ab	0.04068057
6	0x3d260def	0.04054063
7	0x3e0d8de4	0.13823658
8	0x3e5cc831	0.21560742
9	0x3e93fa65	0.28901973
10	0xbcf7d6ae	-0.030253734
11	0x3cb1f6c6	0.021724116
12	0xbe748dd0	-0.23882222
13	0x3db30044	0.08740285
14	0x3e8a03a2	0.26955897
15	0x3e187080	0.14886665
16	0xbe3bfe81	-0.18358804
17	0x3e24594a	0.16049686
18	0x3e51e23e	0.20496461
19	0x3dd3d368	0.10343057
20	0x3e85a25a	0.26100427
21	0x3e67ff27	0.22655927
22	0x3e85a2e5	0.2610084
23	0xbed1cd74	-0.4097706
24	0xbd8d384f	-0.06895506
25	0x3cf7440a	0.03018381
26	0x3e19a82d	0.1500556
27	0xbc69e989	-0.0142768705
28	0xbda8937f	-0.08231258
29	0x3da05bf2	0.07830037
30	0xbe0ae093	-0.13562231
31	0xbe2be3ad	-0.1678607
32	0xbe56760c	-0.20943469
33	0x3c808f81	0.015693428
34	0x3cfff6e3	0.031245654
35	0xbe22a71d	-0.15884061
36	0xbecaa705	-0.3958055
37	0xbe0723f0	-0.13197303
38	0x3e001afc	0.12510294
39	0xbdaf2a1f	-0.08552956
40	0xbcf25c69	-0.02958508
41	0xbecbf8ed	-0.39838353
42	0xbe230930	-0.15921474
43	0xbdaadd92	-0.083430424
44	0x3e8d8113	0.27637538
45	0xbd063a64	-0.03277053
46	0xbe56b7a1	-0.20968486
47	0xbe0967fc	-0.13418573
48	0xbea10aa3	-0.31453428
49	0x3e92a94a	0.28644782
50	0xbdc6baf0	-0.09703624
51	0xbe80e28e	-0.25172848
52	0x3e8fd735	0.28093877
53	0xbe9d84c8	-0.30765367
54	0xbbba633a	-0.0056880983
55	0x3e87ac94	0.26498854
56	0xbe509592	-0.20369557
57	0x3deaef26	0.11471395
58	0x3d993346	0.07480483
59	0xbd1a179f	-0.037620183
60	0xbeae250a	-0.34012634
61	0x3e464e87	0.19365893
62	0x3e1a50c4	0.15069872
63	0xbdb143ca	-0.08655508
64	0xbe177d84	-0.14793974
65	0x3e84b937	0.25922558
66	0x3c3ee704	0.011651758
67	0xbd8e7b8b	-0.06957158
68	0xbdd5567b	-0.104168855
69	0xbd296cde	-0.04136359
70	0xbe5959fa	-0.2122573
71	0xbe82c810	-0.2554326
72	0x3db365fa	0.08759685
73	0x3de29f3b	0.11065527
74	0xbdccedf2	-0.10006322
75	0xbe51b60e	-0.20479605
76	0x3d631bad	0.055446316
77	0x3e03076e	0.12795803
78	0x3de6903c	0.11257979
79	0xbe303730	-0.17208552
80	0xbdaef3f5	-0.08542625
81	0x3dbdd6de	0.09269498
82	0x3e1e0f2f	0.1543548
83	0x3e2f48fe	0.17117688
84	0xbdecff77	-0.115721636
85	0xbea61a16	-0.32441777
86	0x3d6566dd	0.0560063
87	0xbd29fdb0	-0.0415017
88	0x3de4fd19	0.11181087
89	0x3dbeb309	0.09311492
90	0x3e0025ae	0.12514374
91	0xbeb57d8f	-0.35447356
92	0x3d4bc96f	0.04975265
93	0xbe49de35	-0.19713672
94	0xbdfb44b3	-0.12268963
95	0x3e722f0c	0.2365076
96	0x3e834a48	0.2564261
97	0x3de11a75	0.109913744
98	0xbda7c0f3	-0.08191099
99	0xbea8e610	-0.32988024
100	0x3da2e5ee	0.07954012
101	0xbecd36ff	-0.4008102
102	0xbe20e8c6	-0.15713796
103	0xbeb5b70d	-0.3549122
104	0x3ea1acae	0.31577057
105	0xbdcb30b4	-0.09921399
106	0x3eb99f97	0.3625457
107	0x3e7fb10c	0.24969882
108	0xbd71902c	-0.058975384
109	0x3ea851b8	0.32874846
110	0x3e6b37cd	0.22970505
111	0xbe9702cc	-0.2949432
112	0xbe433892	-0.19064549
113	0x3e84e0c7	0.25952742
114	0xbccf027f	-0.025269745
115	0x3d430f89	0.047622237
116	0xbe672483	-0.22572522
117	0x3e335562	0.1751304
118	0x3eb0ddd5	0.34544244
119	0xbe7520be	-0.23938271
120	0xbe0c9ee2	-0.13732484
121	0xbb058372	-0.0020372537
122	0x3d824dfc	0.063625306
123	0xbd00660c	-0.03134732
124	0x3e1552bf	0.14582346
125	0x3e1844ed	0.14870043
126	0x3e7780b4	0.2417019
127	0xbe8ce48f	-0.27518126

fc2.weight f4 [128, 128]
0	0x3d63f0a6	0.055649422
1	0xbd3b0a97	-0.045664396
2	0x3d137c94	0.03600748
3	0x3dabad21	0.08382631
4	0xbd33be9e	-0.04388296
5	0x3db865e8	0.09003812
6	0x3c8639a6	0.01638491
7	0x3c66e726	0.014093196
8	0x3cb80782	0.022464518
9	0x3c67be16	0.014144441
10	0x3d9db2fe	0.07700156
11	0xbd0cd419	-0.03438196
12	0x3df0557b	0.11735054
13	0xbc3e8a97	-0.011629722
14	0x3df09ef4	0.11749068
15	0x3db1cf0c	0.08682069
16	0x3ba39227	0.004991788
17	0xbd28af11	-0.04118258
18	0x3dc35052	0.09536804
19	0xbd064263	-0.032778155
20	0x3d6de0fe	0.058075897
21	0x3daaa89d	0.08332942
22	0x3d0831c5	0.03325059
23	0x3e04c12f	0.12964319
24	0x3cab74e0	0.020929754
25	0x3d9e2ad5	0.07723013
26	0xbb094e33	-0.0020951151
27	0xbd1c8cb9	-0.03822014
28	0xbdcbd676	-0.099530146
29	0xbc9e2196	-0.019303124
30	0xbd7fb834	-0.06243153
31	0xbd9ebdfb	-0.0775108
32	0xbcc7bdcd	-0.024382496
33	0xbce0193b	-0.02735578
34	0x3db375fc	0.08762738
35	0xbda3965d	-0.07987664
36	0x3cde3ff0	0.027130097
37	0x3df2a855	0.11848513
38	0xbca02dce	-0.019553091
39	0x3d10dc74	0.03536649
40	0x3b4de40d	0.0031416446
41	0xbdadf1a1	-0.08493353
42	0xbd6f60e9	-0.05844203
43	0x3dc16bb6	0.09444372
44	0x3d10bb4b	0.035334866
45	0x3d9b9d33	0.07598343
46	0xbd5446f9	-0.051825497
47	0xbd4f6f94	-0.05064352
48	0x3cdfd53d	0.02732336
49	0x3c94648f	0.018114356
50	0xbb0ac950	-0.002117712
51	0x3dd2645d	0.10273049
52	0x3d798974	0.0609221
53	0x3be06e9f	0.0068491246
54	0x3c9c8c96	0.019110005
55	0x3d90bcfe	0.070672974
56	0x3e3b2209	0.18274702
57	0x3d1b34c8	0.037892133
58	0x3d9d6740	0.07685709
59	0x3d928008	0.07153326
60	0x3da0b47f	0.07846927
61	0xbcdd0aa5	-0.026982615
62	0xbd9da112	-0.07696737
63	0x3e049936	0.1294907
64	0xbd76a3d0	-0.060214818
65	0xbdf010a4	-0.11721924
66	0xbda4210b	-0.08014115
67	0xbdbdab33	-0.09261169
68	0xbc42e35a	-0.011895025
69	0xbc155bf0	-0.009116158
70	0xbe0b20fa	-0.13586798
71	0x3d95d2dc	0.07315609
72	0xbd3a770c	-0.04552369
73	0xbb5e00fc	-0.0033875098
74	0xbd0e46e9	-0.034735594
75	0x3e410ef8	0.18853366
76	0x3caf6416	0.02141003
77	0xbe12b618	-0.14327276
78	0xbbac8a7a	-0.005265531
79	0xbbf0bfd2	-0.0073470855
80	0xbcd16be9	-0.02556415
81	0xbd6ae3d4	-0.05734618
82	0xbd330c09	-0.04371265
83	0x3be9b9b1	0.007132732
84	0xbdc8f218	-0.09811801
85	0xbcd9b430	-0.026575178
86	0x3b74be30	0.0037344806
87	0xbdcf3f92	-0.10119547
88	0x3db48e8f	0.088162534
89	0xbdf97b34	-0.12181702
90	0x3d2f8722	0.042853482
91	0xbd07d510	-0.033162177
92	0x3e02aed3	0.12762003
93	0xbd883b46	-0.066519305
94	0x3cc0a370	0.023515433
95	0xbd6c9df6	-0.05776783
96	0x3deb3fa8	0.11486751
97	0x3da59b4f	0.080862634
98	0x3c9437e2	0.018093053
99	0xbdc47af5	-0.09593765
100	0xbdb059eb	-0.086109005
101	0xbd405704	-0.046957985
102	0xbd9c8383	-0.07642271
103	0xbbd591bb	-0.0065176166
104	0x3c8698ec	0.01643034
105	0xbbc1a49d	-0.005909516
106	0xbb0b71f1	-0.0021277631
107	0xbd53dfc1	-0.05172706
108	0x3dd91b32	0.1060089
109	0xbd10e0ca	-0.035370626
110	0x3dd900c2	0.10595848
111	0x3c1d6786	0.009607201
112	0xbd540ae2	-0.05176819
113	0xbd681611	-0.05666167
114	0x3db52239	0.08844418
115	0x3d959018	0.07302874
116	0x3c63653a	0.013879115
117	0xbc66e557	-0.014092765
118	0x3dd85fd0	0.1056515
119	0xbd2c825a	-0.0421165
120	0x3bb61aa5	0.0055573755
121	0xb9b1d8df	-0.00033921652
122	0x3d85b51e	0.06528686
123	0x3dd592a4	0.1042836
124	0x3ceb1a17	0.028698964
125	0x3cdb1a4b	0.026745936
126	0x3ccdfc0e	0.025144603
127	0xbcc73cf7	-0.024321062
128	0x3a1ffc19	0.0006102934
129	0xbbe7596f	-0.007060222
130	0x3c137e37	0.00900226
131	0xbd6c26b3	-0.057654094
132	0xbe0133fc	-0.12617487
133	0x3d9994f6	0.07499115
134	0xbcd5414d	-0.026032114
135	0x3d25bb91	0.04046208
136	0x3c75b787	0.01499737
137	0x3e024e58	0.12725198
138	0xbcf6c6fa	-0.030124176
139	0xbcba4a80	-0.022740602
140	0x3db68e8b	0.08913907
141	0xbbed83a6	-0.0072483597
142	0xbd64abd2	-0.055827923
143	0xbd8edd18	-0.06975764
144	0x3dcf2290	0.10114014
145	0x3dbc4f7e	0.091948494
146	0x3df77916	0.12083642
147	0xbd311ff5	-0.043243367
148	0xbd2549b9	-0.04035351
149	0x3d3232cb	0.04350547
150	0xbdc61988	-0.096728384
151	0x3e2fda95	0.17173226
152	0x3dfcce60	0.123440504
153	0x3d96ac4a	0.0735708
154	0x3cd6119d	0.026131446
155	0xbcf0b71c	-0.029384188
156	0xbd435526	-0.047688626
157	0x3c94b8ef	0.01815459
158	0xbc894a78	-0.016759142
159	0x3cb147c8	0.021640673
160	0x3cb9bf82	0.022674326
161	0x3c817943	0.015804892
162	0x3cde6a88	0.027150407
163	0x3cc0c9f1	0.023533793
164	0xbcd42b1f	-0.025899468
165	0xbd8e8810	-0.069595456
166	0x3c20d250	0.009815767
167	0x3d8fd640	0.07023287
168	0xbce69c82	-0.0281508
169	0x3d84d9df	0.06486868
170	0xbcd91e0f	-0.02650359
171	0xbbb7f515	-0.005613933
172	0xbd62c9af	-0.05536812
173	0x3c9f12b5	0.0194181
174	0x3d368005	0.044555683
175	0x3dcaecec	0.099084705
176	0xbe2f4d90	-0.17119431
177	0x3d105acc	0.03524284
178	0xbaec567f	-0.0018031149
179	0x3d31432b	0.043276947
180	0x3d7e3602	0.062063225
181	0xbdc3baa7	-0.095570855
182	0xbdc8f615	-0.098125614
183	0xbcad454a	-0.021151204
184	0xbe1a8daa	-0.15093103
185	0x3d250f0f	0.040297564
186	0xbce5b6e1	-0.028041305
187	0xbe2cdd0b	-0.16881196
188	0xbc8e5fc9	-0.017379658
189	0x3dab64b8	0.0836882
190	0x3dc21c23	0.09478023
191	0xbdf461c6	-0.11932711
192	0x3da37b6a	0.07982524
193	0x3dd78252	0.105229035
194	0xbd2c0b46	-0.04200294
195	0xbd960904	-0.07325938
196	0xbd4046df	-0.046942588
197	0xbdd7e8f0	-0.10542476
198	0x3d885ef9	0.066587396
199	0xbd639283	-0.055559646
200	0xbcdde88e	-0.02708843
201	0x38970ae1	7.2022674e-05
202	0x3d70d6f0	0.05879873
203	0xbe10e2b9	-0.14148988
204	0x3d11d4ba	0.035603262
205	0xbd9fa569	-0.07795221
206	0x3d9d1050	0.07669127
207	0xbbd18c53	-0.006394902
208	0x3da22040	0.079163074
209	0x3bb11bfe	0.0054049483
210	0xbd2958c1	-0.041344408
211	0xbd867735	-0.06565706
212	0x3d65e7eb	0.056129377
213	0xbc041a1e	-0.008062867
214	0xbda417c8	-0.080123484
215	0xbc50efa8	-0.012752451
216	0x3cf60508	0.030031696
217	0x3d6b2e6b	0.057417314
218	0x3d3962c0	0.04526019
219	0xbb2547b7	-0.0025219747
220	0x3d0b9fc1	0.0340879
221	0x3d6e28c0	0.05814433
222	0x3d6f03db	0.058353286
223	0x3d547999	0.051873777
224	0xbd897eb7	-0.06713622
225	0xbc1ca25d	-0.009560195
226	0x3d59ceb1	0.053175632
227	0x3df40d9b	0.119166575
228	0x3d90928c	0.070592016
229	0xbd8f8bf7	-0.07009118
230	0x3c8bce04	0.01706601
231	0xbdfa5e25	-0.12224988
232	0xbc8399dc	-0.016064577
233	0x3d859b45	0.06523756
234	0x3d52a763	0.051429164
235	0x3b515018	0.0031938609
236	0x3becd260	0.007227227
237	0x3a072514	0.00051553664
238	0x3cbbaae3	0.022908634
239	0x3c827f9e	0.015929993
240	0xbd048d77	-0.032361474
241	0x3db6f82d	0.089340545
242	0x3d2bf6ad	0.041983295
243	0x3d9e3da4	0.07726601
244	0xbd83cce3	-0.064355634
245	0xbd65141e	-0.05592739
246	0x3c9cf674	0.019160487
247	0x3abaed68	0.0014261426
248	0x3d8f2211	0.069889195
249	0xbc83b84d	-0.016079092
250	0x3cbdcac5	0.023167977
251	0xbd6e92a7	-0.058245327
252	0x3dc62328	0.09674674
253	0xbc506da7	-0.012721456
254	0x3d163189	0.036668334
255	0x3d0a8966	0.03382244

fc2.bias f4 [128]
0	0xbd892fc1	-0.066985615
1	0xbd575172	-0.052567907
2	0xbd931da8	-0.07183391
3	0xbdc0fee1	-0.09423614
4	0x3d27c9d0	0.040963948
5	0xbd66be45	-0.0563338
6	0xbc35a6e0	-0.011087149
7	0xbdd1f14b	-0.10251101
8	0x3d4d40e8	0.050110728
9	0x3c0b5827	0.008504904
10	0x3da346c8	0.07972485
11	0x3dc874c6	0.09787898
12	0xbcc5a659	-0.024127172
13	0xbdb0616d	-0.086123325
14	0xbd7c7da9	-0.061643276
15	0xbda66fb1	-0.08126772
16	0x3ca92dc0	0.020651698
17	0xbd1bcbfb	-0.038036328
18	0x3cd493aa	0.025949318
19	0xbd567c96	-0.05236491
20	0x3c954ddc	0.018225603
21	0x3abc1a85	0.0014351165
22	0x3d3e0da2	0.04639972
23	0x3cf7fd1d	0.030272061
24	0xbe5b7082	-0.21429637
25	0xba7c8661	-0.0009633061
26	0x3cc1ebd3	0.02367202
27	0xbdb7cb7e	-0.0897436
28	0xbd17ca74	-0.03705831
29	0xbc0e07f0	-0.008668885
30	0xbd1c404b	-0.038147252
31	0x3d99f507	0.075174384
32	0xbdb8da23	-0.09025981
33	0x3cb18d7c	0.02167391
34	0x3d0e7aac	0.034784958
35	0x3dcd1d0b	0.10015305
36	0x3bfa8528	0.007645268
37	0x3d2bc39b	0.04193459
38	0xbd85e53a	-0.06537862
39	0xbc92499f	-0.01785737
40	0xbd9bea88	-0.07613093
41	0x3cab9a2a	0.020947535
42	0x3d84ab70	0.064780116
43	0x3cb4528b	0.022012016
44	0xbde5f697	-0.11228674
45	0xbd65bb98	-0.056087106
46	0xbde8a159	-0.113588996
47	0x3db4778c	0.08811864
48	0x3ce00103	0.027344232
49	0x3b18e94f	0.0023332422
50	0x3da8c39e	0.08240436
51	0x3b926b06	0.0044683246
52	0xbd2c64f9	-0.042088483
53	0xbbef41de	-0.007301553
54	0x3d8a3e48	0.067501605
55	0x3c5bdc59	0.013419234
56	0xbd6cb702	-0.057791717
57	0xbd7042df	-0.058657523
58	0x3da5c3b8	0.08093971
59	0x3d71009f	0.058838483
60	0x3df1f791	0.11814798
61	0x3ba9b42f	0.0051789503
62	0x3cfca7ef	0.030841796
63	0xbcd5dbc3	-0.026105767
64	0x3c8696c1	0.016429307
65	0x3d41fd6f	0.047360834
66	0x3d462017	0.048370447
67	0x3c4a7d36	0.012358954
68	0x3d00d6be	0.031454794
69	0x3dae890f	0.085222356
70	0x3d828f65	0.063750066
71	0x3dde3817	0.10850542
72	0xbd297488	-0.0413709
73	0x3d41544e	0.04719954
74	0x3d7f3448	0.06230572
75	0x3d84bbdf	0.06481146
76	0xbda98bce	-0.08278619
77	0xbd2b4733	-0.041815948
78	0x3dc5544c	0.09635219
79	0x3d88eaa9	0.06685383
80	0x3ce11426	0.027475428
81	0xbbc283ad	-0.005936107
82	0x3ccaf8b7	0.0247768
83	0x3d9f7edf	0.077878706
84	0xbae972d2	-0.0017810708
85	0x3daaf1cc	0.083469
86	0xbd9a9650	-0.07548201
87	0x3d8023cc	0.06256828
88	0xbd8f9540	-0.07010889
89	0xbdbe4a79	-0.09291548
90	0xbc1ebd6c	-0.009688716
91	0x3d794c29	0.060863648
92	0x3d9fff49	0.07812364
93	0xbdb60630	-0.08887899
94	0x3bae09ff	0.00531125
95	0x3d8d657f	0.069041245
96	0xbd03a7b4	-0.032142356
97	0xbd7307e7	-0.059333708
98	0xbd9e95f5	-0.07743446
99	0x3d955981	0.07292462
100	0x3d42e817	0.04758462
101	0x3d4d9f5c	0.050200805
102	0xbdcf1455	-0.101113
103	0x3d8f0d13	0.069849156
104	0x3c65182d	0.013982815
105	0xbd1f7a4f	-0.038935002
106	0x3d8e989b	0.06962701
107	0x3a1da1a8	0.00060131634
108	0xbd08575e	-0.033286445
109	0xbd26500f	-0.040603694
110	0x3c683e69	0.014175036
111	0x3d53ab9f	0.051677343
112	0xbd9bb505	-0.07602886
113	0x3d218377	0.039432015
114	0x3cd46b9f	0.025930224
115	0xbd4a6d18	-0.049420446
116	0xbd2768a0	-0.040871263
117	0x3d589bde	0.05288302
118	0x3cb04bf9	0.021520602
119	0x3d8dd746	0.06925826
120	0x3d222a25	0.039590973
121	0xbd5b8fef	-0.053604063
122	0x3c2bc716	0.0104844775
123	0x3d827c59	0.06371374
124	0xbb615ceb	-0.0034387659
125	0xbe039708	-0.12850583
126	0xbdb3435d	-0.08753083
127	0x3dac1209	0.084018774
