pretrained/compas_mlp_base_latent_linear.pth (torch, 1575 bytes, 1 tensors)

classifier.weight f4 [1, 128]
-0.09552242 0.08256167 -0.076178335 0.2725932 -0.17604342 -0.09924031 -0.016714023 0.13542446
-0.030728472 -0.026640527 -0.09098665 0.13279004 -0.036420986 0.09110941 0.09355319 -0.047284346
0.20069121 0.1241283 0.03215366 0.08250415 -0.04982405 -0.022394296 -0.046977483 -0.0564219
0.3668404 -0.051037718 0.05210061 -0.10738637 0.09046628 -0.06215451 0.12574618 0.07874271
-0.0136983525 0.18440776 0.046392106 0.02424631 -0.0980293 -0.09581248 -0.039241165 0.21004432
0.08492743 -0.10240635 0.08231799 0.118620075 -0.15032156 0.13870029 0.37333646 -0.10333934
0.025154846 0.10255399 0.047037333 0.049153436 -0.138933 -0.12392418 -0.12207811 -0.029838398
0.055854294 0.006961628 0.055543773 0.119606525 0.15895848 -0.004322969 -0.04011924 -0.045460302
0.058130696 -0.107739724 0.07132585 -0.10508452 -0.1299969 -0.0983754 -0.026293771 0.07759262
0.1528139 -0.004628784 -0.060765922 -0.08602136 -0.15481505 0.07041832 0.13618848 0.11904278
-0.09612188 0.18306829 0.2492431 -0.08936582 0.02831554 0.07759734 -0.105552725 -0.079317756
0.1036583 0.04700029 -0.06769849 -0.010261535 -0.08884673 -0.048228957 -0.20291902 0.0905573
0.048964072 -0.014158456 -0.032251254 -0.1504357 0.13531825 -0.07968953 0.18072271 0.08050228
-0.067181125 -0.21421036 0.08959055 0.05044421 0.10590532 -0.0645299 -0.08780641 0.019137796
-0.20778385 -0.03137631 0.15751834 0.31503037 -0.057519905 -0.019862507 -0.006781909 -0.051743545
-0.08031592 0.14734948 -0.031669036 0.051745556 -0.065264545 0.119259246 0.12463764 -0.075669914
00000000: 42a1 c3bd 1816 a93d 6303 9cbd 5691 8b3e
00000010: ba44 34be 813e cbbd d9eb 88bc b6ac 0a3e
00000020: 47ba fbbc 3c3d dabc 3557 babd 1dfa 073e
00000030: 2c2e 15bd 9297 ba3d d198 bf3d 3bad 41bd
00000040: ff81 4d3e fa36 fe3d 8eb3 033d f0f7 a83d
00000050: 4e14 4cbd 3e74 b7bc 766b 40bd a61a 67bd
00000060: 81d2 bb3e ed0c 51bd 7367 553d 63ed dbbd
00000070: 6346 b93d ba95 7ebd 9bc3 003e dc43 a13d
00000080: 0e6f 60bc 63d5 3c3e a605 3e3d 33a0 c63c
00000090: 96c3 c8bd 5539 c4bd 58bb 20bd dc15 573e
000000a0: 6fee ad3d 6cba d1bd 5696 a83d 15ef f23d
000000b0: e5ed 19be 7307 0e3e f525 bf3e 93a3 d3bd
000000c0: 8911 ce3c d407 d23d 38aa 403d 1d55 493d
000000d0: 7444 0ebe f6cb fdbd 1704 fabd a86f f4bc
000000e0: 79c7 643d 5e1e e43b de81 633d 44f4 f43d
000000f0: 03c6 223e b1a7 8dbb 1254 24bd 9534 3abd
00000100: 741a 6e3d a5a6 dcbd 4a13 923d 8e36 d7bd
00000110: e81d 05be 0b79 c9bd 0966 d7bc e1e8 9e3d
00000120: 3f7b 1c3e 0ead 97bb b0e5 78bd f72b b0bd
00000130: d687 1ebe 7b37 903d fe74 0b3e b3cc f33d
00000140: 8cdb c4bd 4176 3b3e 9539 7f3e 6d05 b7bd
00000150: fef5 e73c 5beb 9e3d 072c d8bd 5971 a2bd
00000160: ce4a d43d 6083 403d 82a5 8abd ff1f 28bc
00000170: 46f5 b5bd ba8b 45bd 01ca 4fbe 1b76 b93d
00000180: 8d8e 483d def8 67bc e419 04bd d10b 1abe
00000190: de90 0a3e 4434 a3bd 600f 393e 61de a43d
000001a0: 4296 89bd f659 5bbe 407b b73d 979e 4e3d
000001b0: e3e4 d83d 4128 84bd d9d3 b3bd dec6 9c3c
000001c0: 4ac5 54be 7284 00bd 7d4c 213e a94b a13e
000001d0: fe99 6bbd b2b6 a2bc c73a debb 0af1 53bd
000001e0: ac7c a4bd c8e2 163e 64b7 01bd 26f3 533d
000001f0: 6ba9 85bd 313e f43d 0542 ff3d d4f8 9abd
